Lab2/checkpoint/EEGNet_demo.pth (torch_old, 221972 bytes, 39 tensors)

firstconv.0.weight f4 [16, 1, 1, 51]
0	0x3d9ba345	0.075995006
1	0x3d51b5af	0.051198658
2	0xbda34c27	-0.07973509
3	0x3e137f55	0.14404042
4	0xbd49f5e5	-0.04930677
5	0x3ce3b72d	0.027797306
6	0x3d0205f6	0.031743966
7	0x3d141887	0.036156204
8	0xbcc8d53a	-0.024515737
9	0xbcd9c299	-0.02658205
10	0x3c774344	0.015091721
11	0xbe19a95c	-0.15006012
12	0xbd160136	-0.03662225
13	0xbe42caa3	-0.19022612
14	0xbe098940	-0.13431263
15	0xbe00bc2c	-0.12571782
16	0xbe1e3d0e	-0.15452978
17	0xbe8311e6	-0.25599593
18	0xbe433703	-0.19063954
19	0xbdba2404	-0.09088901
20	0xbe5797fe	-0.21054074
21	0xbdb68f24	-0.08914021
22	0xbe2ec909	-0.17068876
23	0xbcd5c46d	-0.02609464
24	0xbd4de12b	-0.050263565
25	0xbdbb6f64	-0.091521055
26	0xbd123840	-0.035698175
27	0x3c098e2a	0.008395711
28	0xbe122fa1	-0.14275981
29	0xbe165331	-0.14680173
30	0x3db61f4b	0.088926874
31	0x3c3f3939	0.011671358
32	0xbd18078e	-0.03711658
33	0x3d459af5	0.04824348
34	0xbd772c8c	-0.060345218
35	0xbc348723	-0.011018547
36	0xbc4070ab	-0.011745612
37	0xbc9f5f8e	-0.019454744
38	0x3d010c8c	0.031506106
39	0xbcf2ee6f	-0.02965471
40	0x3db160dc	0.086610526
41	0x3dc530cf	0.0962845
42	0x3d19369f	0.037405606
43	0xbdb73369	-0.089453526
44	0xbcdefc11	-0.027219804
45	0x3d0ed79e	0.034873597
46	0x3dc61cc6	0.09673457
47	0xbda9440c	-0.08264932
48	0x3ca0cee4	0.019629903
49	0xbd1ecb3c	-0.03876804
50	0xbdee0bdf	-0.11623358
51	0xbdadb00e	-0.084808454
52	0x3d9c8888	0.07643229
53	0xbc906740	-0.017627358
54	0x3d9ac712	0.07557501
55	0xbd05af6b	-0.032637995
56	0xbd445740	-0.04793477
57	0xbd4659bf	-0.048425432
58	0x3d99dd61	0.07512928
59	0x3dfa7c22	0.12230708
60	0xbdb2254e	-0.086985216
61	0xbe1e269c	-0.15444416
62	0x3e008329	0.12550034
63	0x3d1aefd5	0.037826378
64	0x3d902604	0.07038501
65	0xbda3b8af	-0.0799421
66	0xbe0f73aa	-0.14008966
67	0x3de5baf4	0.11217299
68	0x3da12fde	0.07870458
69	0x3d3ac760	0.045600295
70	0xbe09e217	-0.13465153
71	0xbdc3f3f5	-0.095680155
72	0x3e11b9b5	0.14230998
73	0x3da29ddd	0.07940266
74	0xbd73349b	-0.05937634
75	0xbd9d6182	-0.07684614
76	0xbcdc9986	-0.026928674
77	0x3dc235de	0.094829306
78	0x3cd660da	0.02616923
79	0x3d1919a4	0.03737797
80	0xbe002984	-0.12515837
81	0xbdb48f05	-0.08816341
82	0x3e0e0cee	0.1387212
83	0x3d861d37	0.06548541
84	0xbdcca2c8	-0.099919856
85	0x3cc08dc8	0.023505107
86	0xbd71b192	-0.059007235
87	0x3d13135f	0.035907146
88	0x3d2eb8a5	0.04265656
89	0xbcbf571b	-0.023356965
90	0x3d087128	0.03331104
91	0xbe04f326	-0.12983379
92	0x3daaea45	0.083454646
93	0x3d99af44	0.075041324
94	0xbd697c3a	-0.057003237
95	0xbd0a23ee	-0.03372567
96	0x3d9784d2	0.0739838
97	0xbde4659d	-0.11152194
98	0x3dcafe90	0.09911835
99	0x3ca3b5fe	0.019984242
100	0xbd6d11c4	-0.05787827
101	0x3cafe2be	0.021470424
102	0xbe0dea87	-0.13858996
103	0x3d87b35e	0.066260085
104	0x3d102987	0.035195854
105	0xbdfcc740	-0.123426914
106	0xbd986c2e	-0.07442509
107	0xbda9717b	-0.08273598
108	0x3d9203b3	0.07129612
109	0xbdc2067d	-0.09473894
110	0xbda17754	-0.07884088
111	0xbd62f15a	-0.055405952
112	0xbd9c2927	-0.07625037
113	0x3da978ad	0.0827497
114	0x3decba18	0.11558932
115	0xbdbd2b73	-0.09236803
116	0x3dffaa16	0.12483613
117	0x3b5bf2d6	0.003356149
118	0xbdaee438	-0.08539623
119	0x3c73091a	0.014833713
120	0x3deac951	0.11464179
121	0x3d1f4033	0.038879585
122	0x3cca1488	0.024667993
123	0x3e0ac4bb	0.13551609
124	0x3d5c7bd3	0.053829025
125	0xbdb5c6e3	-0.08875825
126	0x3c15e2fd	0.0091483565
127	0xbbe27fa7	-0.00691219
128	0x3e20cccd	0.15703125
129	0xbca6dcc8	-0.020368949
130	0x3dc97dd1	0.09838451
131	0x3d7bc1c6	0.061464094
132	0xbacd2011	-0.0015649815
133	0xbcfd9c35	-0.030958274
134	0x3e0797aa	0.13241449
135	0x3dcda54c	0.100412935
136	0x3b548bef	0.003243204
137	0x3e291833	0.16513138
138	0x3d0d5295	0.034502584
139	0x3d82fa64	0.063954145
140	0x3e48ae6e	0.1959779
141	0x3d7f82d9	0.062380645
142	0x3d7f0c6d	0.06226771
143	0x3e50173d	0.20321365
144	0xbc93a8a5	-0.018024752
145	0x3e754bb7	0.23954664
146	0x3ce4afe3	0.0279159
147	0x3e1b5b8a	0.15171638
148	0x3e020e80	0.12700844
149	0x3dd23561	0.102640875
150	0x3dc8c1d1	0.098025925
151	0x3e07e2b7	0.13270079
152	0x3e4b4aed	0.198528
153	0x3ea5b022	0.3236094
154	0x3e232237	0.1593102
155	0x3dc91223	0.098179124
156	0x3dd6fdf7	0.10497659
157	0xbd4002f6	-0.046877824
158	0x3d86955f	0.06571459
159	0x399d7b5a	0.00030037278
160	0x3e2d460e	0.16921255
161	0x3d59bef7	0.053160634
162	0x3c7f5038	0.0155830905
163	0x3c146652	0.009057598
164	0x3d775328	0.06038204
165	0x3b9997e3	0.0046872958
166	0xbd0148f9	-0.031563733
167	0xbd978c42	-0.07399799
168	0x3d923b50	0.07140219
169	0xbb9ae250	-0.0047266856
170	0xbe0c3fed	-0.13696261
171	0xbce1db24	-0.027570315
172	0x3d76a07a	0.060211636
173	0xbc028031	-0.0079651335
174	0xbb156e6a	-0.0022801408
175	0x3d8b5e97	0.06805151
176	0x3d92cbea	0.071678
177	0xbd0b44c3	-0.034001123
178	0xbd2d7a04	-0.04235269
179	0xbd3e75b7	-0.04649898
180	0x3da814df	0.08207106
181	0x3df1e99f	0.11812138
182	0x3cf36c06	0.029714596
183	0xbd3510ef	-0.044205602
184	0x3ddd6f48	0.10812241
185	0x3db7f748	0.08982712
186	0x3d59a621	0.05313695
187	0xbc61aa61	-0.013773532
188	0xbb78a73b	-0.0037941474
189	0x3ddc958a	0.1077071
190	0x3d299f28	0.04141155
191	0xbc96b6a4	-0.018397637
192	0x3daa8642	0.08326389
193	0x3d978ef9	0.07400317
194	0x3d8bfa3c	0.06834838
195	0x3d1969fd	0.037454594
196	0x3e000a53	0.12503938
197	0x3d66be0b	0.056333583
198	0x3d998ef0	0.07497966
199	0x3d501f2c	0.050810978
200	0x3d1e8d95	0.038709242
201	0x3d465c44	0.048427835
202	0x3e38685e	0.18008563
203	0x3e84d7d7	0.25945923
204	0xbe780925	-0.24222238
205	0xbd298842	-0.04138971
206	0xbde4ddb3	-0.11175098
207	0x3dc66665	0.09687499
208	0x3dd3fa5a	0.10350485
209	0x3db36d3a	0.08761068
210	0xbb3c9c27	-0.0028779597
211	0x3dfec25d	0.124394156
212	0xbcf60a65	-0.030034253
213	0xbd5a7a1e	-0.053339116
214	0xbdb1695f	-0.08662676
215	0xbde1df74	-0.110289484
216	0xbd954b90	-0.07289803
217	0x3c63365b	0.01386794
218	0x3bda4c65	0.006661939
219	0x3da444b8	0.080209196
220	0x3e153653	0.14571504
221	0xbbb7eb94	-0.0056128
222	0x3da37f88	0.07983309
223	0x3cc6fb2b	0.024289688
224	0xbde98513	-0.11402335
225	0xbe1e3832	-0.15451124
226	0xbdf071e2	-0.117404714
227	0x3b91f6fd	0.004454492
228	0x3baf0afd	0.005341886
229	0x3cbb5d33	0.02287159
230	0x3d17559e	0.036946885
231	0x3e395f9f	0.18102883
232	0x3e706b61	0.23478462
233	0xbd91316b	-0.07089504
234	0xbd565efb	-0.052336674
235	0xbdf2bece	-0.11852799
236	0x3ca99446	0.020700585
237	0xbdd552f2	-0.10416211
238	0xbdba9a83	-0.09111502
239	0xbca2bf27	-0.01986654
240	0xbb7515d1	-0.0037397037
241	0x3e3795cf	0.17928241
242	0x3b5e023a	0.003387584
243	0x3e00fb09	0.12595762
244	0xbd4c0ce0	-0.049816966
245	0x3d81db54	0.06340662
246	0xbdd34427	-0.103157334
247	0xbdd83627	-0.10557204
248	0xbd8d2798	-0.068923175
249	0xbdd729c3	-0.10506012
250	0xbc7c58c0	-0.015402019
251	0x3de4e97e	0.111773476
252	0x3db75949	0.08952577
253	0x3d93bc19	0.07213611
254	0x3dc04037	0.09387248
255	0x3e08bf83	0.13354306

firstconv.1.weight f4 [16]
0	0x3eb10a1e	0.3457803
1	0x3f5c073d	0.85948545
2	0x3d7d80fa	0.06189058
3	0x3ebaeddf	0.36509606
4	0x3e7266b6	0.23671994
5	0x3f4be9f1	0.7965384
6	0x3f3c1b85	0.7347949
7	0x3f6e6060	0.93115807
8	0x3e84d33a	0.25942403
9	0x3e3f0d50	0.18657422
10	0x3d464265	0.048403163
11	0x3f7ae5f0	0.98007107
12	0x3f161989	0.58632714
13	0x3eb3fed5	0.3515536
14	0x3ee90eef	0.45519206
15	0x3e641390	0.22273088

firstconv.1.bias f4 [16]
0	0xbb1b0bb8	-0.0023658108
1	0x3c39b2bc	0.0113341175
2	0x3ca1b6b9	0.01974045
3	0x3c78bccc	0.015181731
4	0x3d06b5a6	0.032888077
5	0xba978cdc	-0.0011562365
6	0xbc051def	-0.0081248125
7	0xbb55a080	-0.0032596886
8	0x3c658d97	0.014010808
9	0xbd111a33	-0.035425376
10	0x3d2d2f57	0.042281475
11	0xbb88df76	-0.0041770292
12	0x3b2b5c70	0.0026147626
13	0xbc27034a	-0.010193655
14	0x3ca8ceb6	0.02060638
15	0xbc164ced	-0.009173614

firstconv.1.running_mean f4 [16]
0	0x3d8ac495	0.06775776
1	0xbae01807	-0.0017097004
2	0xbdf583b5	-0.11988012
3	0xbdfdfcfe	-0.1240177
4	0xbb35a7cd	-0.0027718425
5	0xbba1d4d3	-0.0049387007
6	0xbb898a88	-0.0041974224
7	0x3b98120c	0.004640823
8	0xbc5e5793	-0.013570684
9	0x3c915b7a	0.017743815
10	0x3d8037be	0.06260632
11	0xbab047f4	-0.0013449178
12	0x3d2519a9	0.040307675
13	0x3aa42a97	0.00125249
14	0x398c52fe	0.00026764715
15	0x3c1f6020	0.009727508

firstconv.1.running_var f4 [16]
0	0x42d11c90	104.555786
1	0x3fbec85a	1.4904892
2	0x42fffc33	127.99258
3	0x429e84dd	79.2595
4	0x41ceeac6	25.864635
5	0x405793c8	3.3683949
6	0x40a1800a	5.04688
7	0x409b90bf	4.861419
8	0x41d7ad5d	26.95965
9	0x42006857	32.101894
10	0x41fd6962	31.676456
11	0x3ff9a1ad	1.9502465
12	0x42580a78	54.010223
13	0x411bc07c	9.734493
14	0x40b6f4b6	5.717372
15	0x41e529a9	28.645342

depthwiseConv.0.weight f4 [32, 1, 2, 1]
0	0x3e2e8c5b	0.17045729
1	0xbc8b99da	-0.017041136
2	0xbe39ebc3	-0.18156342
3	0x3cd4e546	0.025988232
4	0x3e33a41b	0.1754307
5	0xbd26d3e5	-0.040729422
6	0x3c92581e	0.017864283
7	0x3e3765f1	0.17909981
8	0xbe0a0548	-0.13478577
9	0x3db2c6af	0.08729302
10	0x3ce4ed80	0.02794528
11	0xbd541428	-0.051777035
12	0x3c8e7ac7	0.01739253
13	0xbe126397	-0.14295803
14	0xbd0c3e85	-0.03423931
15	0x3e0d73b1	0.13813664
16	0x3e2733b3	0.16328315
17	0xbd81c5b5	-0.06336538
18	0xbe0db3f0	-0.13838172
19	0x3d614ca9	0.05500475
20	0x3e4fe4e7	0.20302163
21	0xbd0110d7	-0.0315102
22	0xbd0ab241	-0.033861402
23	0x3db6bf07	0.08923154
24	0xbd4d2b94	-0.050090387
25	0xbdbf9d33	-0.09356155
26	0xbdc30694	-0.09522739
27	0x3d152ee3	0.036421668
28	0x3caa536c	0.020791732
29	0xbe405893	-0.18783788
30	0x3cf1bbbc	0.029508464
31	0xbe0b51c0	-0.13605404
32	0x3d17c0b2	0.037049003
33	0xbe8aec32	-0.27133328
34	0x3d79d8af	0.06099766
35	0xbd505a23	-0.05086721
36	0x3d54428c	0.051821277
37	0x3de98a8f	0.11403381
38	0x3e09aee5	0.13445623
39	0xbe06ed59	-0.13176478
40	0xbde4222d	-0.11139331
41	0x3d9122eb	0.07086738
42	0xbdb52ed8	-0.08846825
43	0xbd047e2f	-0.0323469
44	0x3d15b094	0.03654535
45	0xbde9456c	-0.11390194
46	0x3d505c30	0.050869167
47	0xbded59e5	-0.11589412
48	0x3d526e76	0.051374875
49	0xbdbc20ab	-0.091859184
50	0xbd3a62ea	-0.045504488
51	0x3d8006c3	0.0625129
52	0xbceed13b	-0.029152503
53	0x3e5f9bdf	0.21836804
54	0x3e12cb91	0.14335467
55	0xbe4df1c5	-0.20111759
56	0x3cb27705	0.021785269
57	0xbe2c6f5f	-0.1683936
58	0x3cfb88fe	0.030704971
59	0xbdb93bd9	-0.09044618
60	0x3d57bc14	0.0526696
61	0xbdadec9e	-0.08492397
62	0x3e23e44e	0.1600506
63	0xbe06f950	-0.13181043

depthwiseConv.1.weight f4 [32]
0	0x3ec0d0ed	0.37659398
1	0x3e62d7dc	0.22152656
2	0x3f243933	0.6414978
3	0x3f308933	0.6895935
4	0x3eed68cb	0.46369013
5	0x3f5cee07	0.863007
6	0x3edf6219	0.4362953
7	0x3eb5ac45	0.35482994
8	0x3e97f46f	0.29678676
9	0x3edad880	0.427433
10	0x3f55f1ca	0.83572066
11	0x3f07e37d	0.53081495
12	0x3ee83bb8	0.45358062
13	0x3f4f4c80	0.80976105
14	0x3e7d6397	0.24745022
15	0x3f2fcc91	0.6867152
16	0x3e9f5a2d	0.31123486
17	0x3eff3ec2	0.49852568
18	0x3f3251b4	0.6965592
19	0x3eb55efb	0.35424027
20	0x3f20380f	0.6258554
21	0x3f3e1785	0.7425464
22	0x3f3ef548	0.7459302
23	0x3e8c41a5	0.27393833
24	0x3f0d4100	0.5517731
25	0x3e758704	0.23977286
26	0x3f30d021	0.6906758
27	0x3f1af4cf	0.605298
28	0x3f501fba	0.8129841
29	0x3f3402e8	0.70316935
30	0x3e9fbb18	0.3119743
31	0x3f2d9afa	0.678146

depthwiseConv.1.bias f4 [32]
0	0xbe5cc30e	-0.21558782
1	0x3c98bffa	0.018646229
2	0xbed67b39	-0.41890886
3	0xbe8f7903	-0.28022012
4	0x3d01ee9c	0.031721696
5	0xbe9ebfb5	-0.31005636
6	0xbcc0625a	-0.023484398
7	0x3cd18288	0.025574937
8	0xbe126d31	-0.14299466
9	0xbe82cfcc	-0.2554916
10	0xbeea8c8d	-0.45810357
11	0xbeb98bbb	-0.36239418
12	0xbe936590	-0.28788424
13	0xbf32b5de	-0.6980876
14	0xbe5d131b	-0.2158932
15	0xbef17e4d	-0.47166672
16	0xbe0b0afe	-0.13578412
17	0xbe644bab	-0.2229449
18	0xbe59b299	-0.21259536
19	0xbda264d3	-0.07929387
20	0xbcf1a6f7	-0.02949856
21	0xbeca9c3c	-0.39572322
22	0xbeafbe49	-0.34324864
23	0xbe0b60cf	-0.13611148
24	0xbb9e863e	-0.0048377803
25	0x3d85e3f4	0.06537619
26	0xbec2d69d	-0.38054362
27	0xbed7c4ab	-0.42142233
28	0xbee2fe36	-0.44334573
29	0xbea717c1	-0.3263531
30	0xbd70120e	-0.05861097
31	0xbea7fe44	-0.32811177

depthwiseConv.1.running_mean f4 [32]
0	0xba0d1b8c	-0.0005382828
1	0x3a1385ea	0.000562756
2	0x3ad2bee7	0.0016078622
3	0x3b10985d	0.0022063472
4	0xba784895	-0.0009471265
5	0xb9e990cd	-0.00044549108
6	0xbae6d8a7	-0.0017612175
7	0x3ab89524	0.0014082533
8	0x3b52fb86	0.0032193377
9	0xbb308143	-0.0026932515
10	0xb953d84a	-0.00020203102
11	0xb8bc9c72	-8.993679e-05
12	0x3a9ca35c	0.001195054
13	0x3a0573e4	0.00050908164
14	0x39f0057c	0.00045780453
15	0x399007ea	0.00027471717
16	0xbb50283e	-0.0031762267
17	0x3922298d	0.00015465003
18	0xbbbf1790	-0.0058316663
19	0xb928c8d2	-0.0001609654
20	0xbad9fa33	-0.0016630351
21	0xbba4fca6	-0.005035001
22	0x39bfcfbd	0.00036585136
23	0x39a9822f	0.00032331186
24	0xb99bfcd0	-0.00029752264
25	0x39454a6f	0.00018815113
26	0xbb01719a	-0.001975155
27	0x3a1fe68e	0.0006099724
28	0xbb43bfbf	-0.0029868928
29	0xba9ff453	-0.0012203552
30	0x39aa7a12	0.00032515876
31	0xb966a66e	-0.00021996509

depthwiseConv.1.running_var f4 [32]
0	0x3b48839b	0.003059602
1	0x3b5889a3	0.0033041022
2	0x3c9ca8f1	0.019123526
3	0x3cd7a828	0.0263253
4	0x38297f92	4.041155e-05
5	0x36cd25c8	6.1138744e-06
6	0x3b20f323	0.0024558983
7	0x3b05e227	0.0020428987
8	0x3a5a84dc	0.00083358376
9	0x3a1bfdc5	0.00059505954
10	0x3cbf3d72	0.02334473
11	0x3b873740	0.0041264594
12	0x3c0b3379	0.008496159
13	0x3b7bee6d	0.0038441673
14	0x3ce1d383	0.027566677
15	0x3c5cf086	0.01348508
16	0x3b71b58b	0.003688189
17	0x39018bbb	0.00012354452
18	0x3a57ae0a	0.0008227533
19	0x39b6d929	0.00034875542
20	0x379a18a3	1.8369703e-05
21	0x37e8c927	2.7750224e-05
22	0x3c2803a0	0.0102547705
23	0x3c2bbe61	0.010482402
24	0x3adfbb65	0.0017069398
25	0x3a4bc035	0.00077724765
26	0x3ba11aa7	0.0049165073
27	0x3b50145e	0.003175042
28	0x3baf446e	0.0053487336
29	0x3aa56ab5	0.0012620302
30	0x393dc6f3	0.00018098559
31	0x3a26c9d4	0.0006362472

separableConv.0.weight f4 [32, 32, 1, 15]
0	0xbda22f49	-0.07919175
1	0xbd9e5f37	-0.077330045
2	0xbd7738fb	-0.060357075
3	0xbd8b111a	-0.06790371
4	0xbdcbf870	-0.09959495
5	0xbd7c8db6	-0.061658584
6	0xbd91eb9b	-0.07125016
7	0xbd1fe768	-0.039039046
8	0x3ce19bbb	0.027540078
9	0x3ca1b89a	0.019741345
10	0x3cf8d01c	0.030372672
11	0x3d73ac9c	0.059490785
12	0x3d97ca50	0.07411635
13	0x3d918ac3	0.07106545
14	0x3da997e5	0.08280925
15	0x3d06c92d	0.0329067
16	0xbd2dcb01	-0.042429928
17	0xbd529d70	-0.051419675
18	0xbd80a4df	-0.06281447
19	0xbd942761	-0.072340734
20	0xbda48e89	-0.08034999
21	0xbd4022c1	-0.046908144
22	0xbd29c7e4	-0.041450396
23	0x3d32480d	0.043525744
24	0x3d9398a4	0.07206848
25	0x3d96db89	0.07366092
26	0x3dbe706f	0.09298789
27	0x3c1649f8	0.009172909
28	0x3c4419b3	0.011969018
29	0xbcc54e74	-0.02408526
30	0x3da7ae72	0.0818757
31	0x3c9a9aa7	0.018872572
32	0xbc468197	-0.012115858
33	0x3b4821ba	0.003053768
34	0xbceebdac	-0.029143177
35	0xbd995c75	-0.07488338
36	0xbe04deeb	-0.12975661
37	0xbd483b91	-0.048884932
38	0xbd2c0357	-0.041995373
39	0xbd4dfe0e	-0.050291114
40	0x3c8d684a	0.017261643
41	0x3d0b6626	0.034032963
42	0x3c5557fa	0.0130214635
43	0x3c90418b	0.017609378
44	0x3cd3cbcf	0.02585402
45	0x3ddc68fb	0.10762211
46	0x3e087999	0.13327636
47	0x3c1b24ee	0.009469254
48	0xbd45668f	-0.04819351
49	0xbcdc6858	-0.026905224
50	0xbba79591	-0.0051142653
51	0xbc10a721	-0.008828909
52	0xbcf47764	-0.029842086
53	0xbd837a75	-0.06419841
54	0x3c9002e2	0.0175795
55	0x3d694ce4	0.056958094
56	0x3cd82fa6	0.026389908
57	0x3c1e0b07	0.009646184
58	0xbd562c34	-0.05228825
59	0xbcd52604	-0.026019104
60	0x3cc2f993	0.023800647
61	0xbc948cf7	-0.018133624
62	0x3c86bf65	0.016448686
63	0x3b4a63cc	0.0030882237
64	0x3c3f4aae	0.01167552
65	0x3b5a46c3	0.0033306337
66	0xbc46af2b	-0.012126724
67	0x3b9a28f8	0.004704591
68	0xbc66508f	-0.014057293
69	0xbb6d59fa	-0.003621696
70	0xbabf532d	-0.0014596932
71	0x3d220ecc	0.039564893
72	0x3d251bdb	0.04030977
73	0x3d8bad1b	0.068201266
74	0x3d971b3b	0.07378241
75	0x3e4fe23f	0.2030115
76	0x3e0203ac	0.12696713
77	0x3dbd2e93	0.09237399
78	0x3d2f0f26	0.042739056
79	0x3cd389da	0.025822569
80	0x3a5aaac7	0.0008341488
81	0xbbd16b48	-0.0063909627
82	0xbc8f1a3c	-0.017468564
83	0xbb86cc19	-0.004113686
84	0x3cff1a35	0.031140426
85	0x3ce17465	0.027521322
86	0x3d3e9a38	0.046533793
87	0x3ca28eeb	0.01984354
88	0x3ce77de0	0.028258264
89	0x3d21462c	0.03937356
90	0xbd268431	-0.04065341
91	0x3cf7dbe5	0.030256221
92	0x3c0f68eb	0.008753042
93	0xbc493777	-0.01228129
94	0xbd1deeed	-0.038557936
95	0xbc7a9cca	-0.0152961705
96	0xbd04f55e	-0.032460563
97	0xbcfb0fad	-0.030647123
98	0xbd0f34cd	-0.034962464
99	0xbd8bd596	-0.06827848
100	0xbd535f37	-0.051604476
101	0xbd53266d	-0.051550318
102	0xbd1e7c2b	-0.038692635
103	0xbd6265f7	-0.055273023
104	0xbd6dc1c5	-0.05804612
105	0x3d38ac02	0.045085914
106	0x3da469c0	0.08027983
107	0x3d335cc9	0.04378966
108	0x3d64ee46	0.055891298
109	0x3a95e4ef	0.0011436025
110	0x3ca637d1	0.020290287
111	0xbcd79f75	-0.026321152
112	0x3c91e7a4	0.01781065
113	0xbb9b3496	-0.0047364933
114	0x3ca6d787	0.020366443
115	0x3d03155b	0.032002788
116	0x3cc14c2a	0.023595888
117	0x3c8e01ad	0.017334783
118	0xbcb1e67c	-0.021716349
119	0xbd8288aa	-0.06373723
120	0x3d31c01e	0.043396108
121	0x3e115ee0	0.14196348
122	0x3c7b00ad	0.015319985
123	0x3c30a5ff	0.010781764
124	0xbcfd7bcf	-0.030942826
125	0xbb50078d	-0.0031742782
126	0xbd3cbc19	-0.04607782
127	0xbd664f4c	-0.056227967
128	0xbd64bab4	-0.055842116
129	0xbdedad9f	-0.11605381
130	0xbc96c327	-0.018403603
131	0xbd960331	-0.073248275
132	0xbc8afd8e	-0.016966607
133	0x3dac9d31	0.084284194
134	0xbd79421f	-0.060854074
135	0xbcc2618b	-0.023728153
136	0xbc752d1c	-0.014964368
137	0xbc45cd52	-0.012072878
138	0xbd271ef5	-0.040801007
139	0x3db583bb	0.08863016
140	0xbd8f7abe	-0.07005833
141	0xbd96c1ce	-0.07361184
142	0xbc2f1bad	-0.010687751
143	0xbca1fa9d	-0.019772822
144	0x3ba97ca3	0.0051723286
145	0xbcb47684	-0.022029169
146	0x3d084c8b	0.033276122
147	0xbbe38235	-0.006943012
148	0x3cc198c0	0.023632407
149	0x3dd88636	0.10572474
150	0xbda66522	-0.08124758
151	0xbce4ac90	-0.027914315
152	0xbba5c633	-0.0050590276
153	0x3db80c41	0.08986712
154	0x3d6e0884	0.05811359
155	0x3df17407	0.117897086
156	0x3e1e01fa	0.15430441
157	0x3d98796a	0.07445033
158	0x3d170006	0.036865257
159	0xbd0aecc5	-0.033917207
160	0xbcda6779	-0.026660668
161	0xbd0a3b5e	-0.033748023
162	0xbc7c8639	-0.015412861
163	0xbdc36f44	-0.095427066
164	0xbdd1e140	-0.10248041
165	0xbdf7e755	-0.1210467
166	0xbd69628e	-0.056978755
167	0xbdeaecc8	-0.11470944
168	0xbe00fdd5	-0.12596829
169	0xbe4e778a	-0.20162788
170	0xbda952da	-0.08267756
171	0x3c9c3910	0.019070178
172	0xbd9a7a68	-0.075428784
173	0x3bbcf455	0.0057664313
174	0xbd686234	-0.05673428
175	0x3d078a22	0.033090718
176	0x3c55b782	0.01304424
177	0x3d4297c3	0.047508013
178	0xb9ba5b8b	-0.0003554489
179	0xbce8f5b9	-0.028437482
180	0xbce7957a	-0.028269518
181	0xbc07a040	-0.008277953
182	0xbdb10155	-0.08642832
183	0xbd8941f5	-0.067020334
184	0xbda780b8	-0.08178848
185	0x3d288de5	0.041150946
186	0x3deb3da0	0.114863634
187	0x3e1983b7	0.14991651
188	0x3e83c3af	0.25735232
189	0x3e22089b	0.15823595
190	0x3c833e8d	0.016021037
191	0xbc471892	-0.012151854
192	0xbce71ef8	-0.02821301
193	0xbd64577f	-0.055747505
194	0x3d87e535	0.06635515
195	0x3e108da6	0.14116535
196	0x3c9c6938	0.019093141
197	0xbd35ee67	-0.04441681
198	0x3cc13881	0.023586513
199	0xbd19eea6	-0.03758111
200	0xbdbbf33f	-0.09177255
201	0xbcd516d6	-0.026011866
202	0xbc8bc2fc	-0.01706075
203	0xbd4449f4	-0.04792209
204	0xbb71f1e4	-0.003691786
205	0xbd926da7	-0.07149821
206	0xbdbe4fa9	-0.09292538
207	0xbd11e442	-0.035618074
208	0xbd6dc05e	-0.058044784
209	0xbd06892a	-0.032845654
210	0xbdba34c6	-0.09092097
211	0xbdc95aea	-0.098317936
212	0xbe30950a	-0.17244354
213	0x3ccf046f	0.025270669
214	0xbe16ef12	-0.14739636
215	0xbd95b48d	-0.07309828
216	0xbe05c841	-0.13064672
217	0xbd65aef6	-0.05607506
218	0xbd66fe56	-0.056394897
219	0xbdf0d007	-0.11758428
220	0xbc14a2ef	-0.0090720495
221	0xbda0abc1	-0.078452595
222	0xbdc55a96	-0.096364185
223	0xbd0902b8	-0.03344986
224	0xbdca0560	-0.098643064
225	0xbb99a369	-0.0046886695
226	0xbc1d3540	-0.009595215
227	0xbd03581c	-0.03206645
228	0x3d9af9dc	0.07567188
229	0xbd054e65	-0.032545466
230	0x3bc1750d	0.005903846
231	0xbd169acb	-0.036768716
232	0xbc6e8794	-0.0145586915
233	0xbcfed693	-0.031108176
234	0xbd1c4e10	-0.038160384
235	0x3d3e248d	0.046421576
236	0xbd6eb387	-0.05827668
237	0xbd628d72	-0.055310674
238	0xbc2ba3f8	-0.010476105
239	0xbd68b3ed	-0.056812216
240	0x3d039485	0.03212406
241	0x3d6f9a48	0.058496743
242	0x3db9ac73	0.09066095
243	0x3d7d9b13	0.06191547
244	0x3d675458	0.05647692
245	0xbc45be7b	-0.01206934
246	0x3d71b787	0.059012916
247	0xbd2a3c55	-0.041561443
248	0xbd3757be	-0.04476141
249	0xbd1d63ad	-0.038425136
250	0xbd7d7bcc	-0.06188564
251	0xbd0ba93b	-0.034096938
252	0xbdb3a4a3	-0.08771636
253	0xbd75ef3e	-0.060042612
254	0xbcfc774b	-0.030818602
255	0xbd4cb8a4	-0.049980775

separableConv.1.weight f4 [32]
0	0x3f47bf0f	0.7802591
1	0x3fa6a7b6	1.3019931
2	0x3f3bfe1d	0.7343462
3	0x3fb7c0ac	1.4355674
4	0x3f3e73a6	0.74395216
5	0x3f9efe68	1.2421389
6	0x3f5e1aae	0.8675946
7	0x3f9d979b	1.2311891
8	0x3f7e6062	0.9936582
9	0x3f34e17e	0.70656574
10	0x3fc77f72	1.5585768
11	0x3f281d27	0.6566948
12	0x3f9b05ef	1.2111186
13	0x3fab0979	1.3362266
14	0x3f87bfb4	1.0605378
15	0x3f94f07e	1.1635892
16	0x3f3d00c8	0.7382932
17	0x3f681477	0.90656227
18	0x3f5b5762	0.8568021
19	0x3f957aec	1.1678138
20	0x3f4eefc4	0.80834603
21	0x3f13ef0f	0.5778665
22	0x3f295268	0.66141367
23	0x3fad6327	1.3545884
24	0x3f954472	1.1661513
25	0x3fc31a52	1.5242407
26	0x3fb0f312	1.3824179
27	0x3f9b72a4	1.214436
28	0x3f39cb67	0.7257599
29	0x3faf9417	1.3717068
30	0x3fa4eacc	1.2884154
31	0x3f7149b0	0.94253063

separableConv.1.bias f4 [32]
0	0xbd91ac5a	-0.071129516
1	0xbe57c3b3	-0.21070747
2	0xba8aa8f2	-0.0010578914
3	0xbe9b170e	-0.30291027
4	0xbe085d58	-0.13316858
5	0xbe46823c	-0.19385618
6	0xbe16895c	-0.14700836
7	0xbe1f5811	-0.15560938
8	0xbd390e41	-0.04517961
9	0xbe262705	-0.16225822
10	0xbe931f47	-0.287348
11	0x3cf14ae7	0.029454662
12	0xbd1382b7	-0.03601333
13	0xbe1a8c29	-0.1509253
14	0xbece41b2	-0.40284497
15	0xbe215185	-0.15753753
16	0xbe05518b	-0.13019387
17	0xbe111394	-0.14167625
18	0x3ca5cc10	0.020238906
19	0xbe377a4f	-0.17917751
20	0xbd98917a	-0.074496225
21	0xbc48843a	-0.0122385565
22	0xbe137959	-0.14401759
23	0xbd9ee325	-0.07758168
24	0xbe737e3a	-0.2377862
25	0xbe8d5f7a	-0.27611905
26	0xbe6fbe4a	-0.23412433
27	0xbdbf7a19	-0.0934946
28	0xbc24137e	-0.010014413
29	0xbe22027e	-0.15821263
30	0xbde80e51	-0.11330856
31	0xbd9e5da3	-0.077327035

separableConv.1.running_mean f4 [32]
0	0xbeb18691	-0.3467298
1	0xbe007b55	-0.12547047
2	0xbe040bf6	-0.12895188
3	0xbebb53ae	-0.3658728
4	0xbda259f6	-0.07927315
5	0xbe0db216	-0.13837466
6	0x3e4fbd9c	0.20287174
7	0xbe15843c	-0.14601225
8	0xbe96881e	-0.29400724
9	0xbddcfaa3	-0.10789993
10	0xbdff7644	-0.12473729
11	0x3d348109	0.04406837
12	0xbe533976	-0.20627388
13	0xbe1c8115	-0.15283616
14	0x3deac70b	0.11463746
15	0xbe85d33e	-0.26137727
16	0xbdfd6c4f	-0.12374174
17	0xbe336f2c	-0.17522877
18	0xbe2f835c	-0.17139953
19	0xbe3137d8	-0.17306459
20	0xbeaa313e	-0.33240694
21	0x3c788fd2	0.015171008
22	0x3e4e3d8f	0.2014067
23	0xbdd2621f	-0.10272621
24	0xbc0da040	-0.008644164
25	0xbe687343	-0.22700219
26	0xbe3abc91	-0.18235995
27	0xbe03b80d	-0.12863179
28	0xbe548a8c	-0.20755976
29	0xbd910e7d	-0.070828415
30	0xbe528d76	-0.20561776
31	0xbed1a2a9	-0.40944412

separableConv.1.running_var f4 [32]
0	0x3e25cffc	0.16192621
1	0x3dd989b8	0.10621971
2	0x3ddb5cc3	0.10711052
3	0x3e342476	0.17592034
4	0x3dffc0ab	0.124879204
5	0x3dfda1cf	0.12384378
6	0x3e45ae68	0.19304812
7	0x3dededee	0.11617647
8	0x3de7da30	0.11320913
9	0x3e0a4c47	0.1350566
10	0x3de778fc	0.11302373
11	0x3e07cb28	0.13261092
12	0x3dca254a	0.098703936
13	0x3deb8069	0.11499102
14	0x3e278166	0.16357955
15	0x3deb1c6d	0.11480031
16	0x3e055569	0.13020863
17	0x3e08436d	0.13306971
18	0x3dd2d1eb	0.10293945
19	0x3de5bfbf	0.11218213
20	0x3e2ff153	0.17181902
21	0x3e01798b	0.12644021
22	0x3e62f9d6	0.22165617
23	0x3dabe013	0.08392348
24	0x3ddb4b29	0.10707695
25	0x3dd29ef7	0.102842264
26	0x3dd88a45	0.10573248
27	0x3db780ff	0.08960151
28	0x3dec50d2	0.11538853
29	0x3d93772a	0.07200463
30	0x3e054fe5	0.13018759
31	0x3e2c3f8b	0.16821115

classify.0.weight f4 [2, 736]
0	0x3e973e10	0.29539537
1	0x3e8a406a	0.2700227
2	0x3d897cfe	0.067132935
3	0x3d7e4bf3	0.06208415
4	0x3d845162	0.06460835
5	0x3e00212e	0.12512657
6	0xbe49f6ac	-0.19723004
7	0xbc2eb504	-0.010663275
8	0x3ca46d7c	0.020071737
9	0xbd819ccc	-0.06328735
10	0xbe5b68e4	-0.21426731
11	0x3e4d4691	0.2004645
12	0x3d4bb1b1	0.049730007
13	0xbe9a3d03	-0.30124673
14	0xbea21bcb	-0.3166183
15	0xbde223b7	-0.11041968
16	0x3e3c5b78	0.18394268
17	0x3e32cdad	0.17461272
18	0x3e221be4	0.15830952
19	0x3e67314b	0.22577398
20	0xbeb24ad5	-0.34822717
21	0x3e33bb52	0.17551926
22	0xbd3076ce	-0.04308205
23	0x3d190dec	0.037366793
24	0xbddbfd16	-0.10741632
25	0xbde5bc18	-0.11217517
26	0xbe075612	-0.13216427
27	0xbe83d762	-0.25750262
28	0xbeaa8bb8	-0.33309722
29	0xbe3211ca	-0.17389598
30	0xbe1f87d7	-0.15579163
31	0xbc157bb9	-0.009123736
32	0x3d40b928	0.04705158
33	0xbe82f201	-0.2557526
34	0x3cf5ad71	0.02998993
35	0xbd9d6585	-0.07685379
36	0x3e2a459a	0.16628113
37	0x3da1c018	0.07897967
38	0xbdcce2a2	-0.10004164
39	0xbcd14b0c	-0.02554848
40	0xbd7b61d1	-0.061372582
41	0xbcfa41c4	-0.030548938
42	0xbd403ba0	-0.046931863
43	0xbdbab723	-0.09116962
44	0x3d8ba9ee	0.06819521
45	0xbccbe80e	-0.024890926
46	0x3e260a2c	0.16214818
47	0x3d026134	0.03183098
48	0x3ec4f0af	0.38464877
49	0x3dee3ea7	0.11633044
50	0x3e695783	0.2278729
51	0xbd460fb8	-0.048354834
52	0xbe0a5b60	-0.1351142
53	0x3ee3e6d7	0.44512054
54	0xbcc0db28	-0.023542002
55	0x3d648554	0.055791214
56	0x3e5d3185	0.21600921
57	0x3d9a5326	0.075353906
58	0xbeadf66d	-0.3397707
59	0x3d97b64f	0.074078195
60	0x3e8b02f8	0.27150702
61	0x3e2b8cea	0.16752973
62	0xbdc4e2eb	-0.09613594
63	0x3e11440d	0.14186116
64	0x3de517e1	0.11186195
65	0xbd94dfec	-0.07269272
66	0xbe1fc31a	-0.15601769
67	0xbe2cfc59	-0.16893138
68	0x3eb1b921	0.34711555
69	0x3e3bc717	0.18337665
70	0x3e88a54d	0.26688614
71	0x3e74b0bb	0.23895542
72	0x3d42c9b1	0.04755563
73	0xbc369f07	-0.0111463135
74	0xbdcde48e	-0.10053359
75	0xbbb375a7	-0.0054766717
76	0xbdbbbe81	-0.09167195
77	0xbe35d0b7	-0.177554
78	0xbe4059df	-0.18784283
79	0xbb2d8e00	-0.0026482344
80	0xbe0f3d2f	-0.13988183
81	0x3d44f2b3	0.04808302
82	0x3e177646	0.14791211
83	0xbdf0c412	-0.117561474
84	0xbdbec80c	-0.093155
85	0xbe05f447	-0.13081466
86	0xbb5dc83c	-0.0033841273
87	0xbd1c40b1	-0.038147632
88	0xbe47d575	-0.19515021
89	0xbd170fb6	-0.036880217
90	0x3d216884	0.039406314
91	0xbd5a1533	-0.053242873
92	0xbdc89d0c	-0.09795579
93	0x3d9e7300	0.07736778
94	0x3e01f1d8	0.12689912
95	0x3dc17778	0.09446615
96	0xbee51529	-0.44742706
97	0xbec21aee	-0.3791117
98	0xbe7b3e30	-0.24535441
99	0xbeebbf72	-0.460445
100	0xbe5a0b5c	-0.21293396
101	0x3e28ec8b	0.16496484
102	0xbec6f275	-0.38856855
103	0xbe6ff0b9	-0.23431672
104	0x3dc6b470	0.097023845
105	0x3d93c081	0.072144516
106	0x3ebd5b10	0.36983538
107	0xbeb1798e	-0.3466305
108	0xbe85de18	-0.26146007
109	0x3ce0d3bc	0.027444713
110	0xbcce8b07	-0.025212778
111	0x3d7d4eca	0.061842717
112	0x3daade1f	0.083431475
113	0xbe52548c	-0.20540065
114	0x3ea79e62	0.32738024
115	0xbeb2eb85	-0.34945312
116	0xbe8e7d72	-0.27830082
117	0xbea5429e	-0.32277387
118	0x3d1da772	0.038489766
119	0x3e1992e6	0.14997444
120	0x3e214b6a	0.15751424
121	0x3dca3b40	0.09874582
122	0x3e0c1f12	0.13683727
123	0x3e3e8cf3	0.18608455
124	0x3e6e4e98	0.23272169
125	0x3de5a379	0.112128206
126	0x3e27d090	0.16388154
127	0x3e903d6e	0.28171867
128	0x3e0ac491	0.13551547
129	0x3e074df7	0.13213335
130	0x3dca90bc	0.09890887
131	0x3e1409cf	0.14456867
132	0x3e13475a	0.14382687
133	0xbc098bf7	-0.008395187
134	0x3db5d606	0.08878712
135	0xbd97a35e	-0.07404207
136	0xbd454433	-0.048160743
137	0x3c94337f	0.018090962
138	0x3d0e4c80	0.034740925
139	0xbe3d3204	-0.1847611
140	0xbeb3bb60	-0.35103893
141	0xbec6b36f	-0.38808772
142	0xbec1073d	-0.37700835
143	0xbeb6c8e1	-0.35700133
144	0xbeb01ce2	-0.34397036
145	0xbe9d6fcc	-0.30749357
146	0xbe18733d	-0.1488771
147	0xbe7724ee	-0.24135181
148	0xbeb6b7d4	-0.35687125
149	0xbe307e4e	-0.17235681
150	0xbeb77e9c	-0.35838783
151	0xbe5e5f41	-0.21716024
152	0x3db6415b	0.08899184
153	0xbd209650	-0.03920585
154	0xbd008896	-0.03138026
155	0x3dcc6f6b	0.09982189
156	0xbda2ec18	-0.079551876
157	0xbd72e521	-0.059300546
158	0x3d91fa0d	0.071277715
159	0xbccbac3a	-0.024862397
160	0x3d7a4794	0.06110342
161	0xbe13c68b	-0.14431207
162	0xbdd5829d	-0.10425303
163	0xbe234a5b	-0.15946333
164	0xbdd25990	-0.10270989
165	0xbe41b7c4	-0.18917757
166	0xbe88acbf	-0.26694295
167	0xbe80a9c7	-0.2512953
168	0x3a98f1c0	0.0011668727
169	0x3d97f350	0.07419455
170	0xbdede3a1	-0.116156824
171	0xbd5eeb3d	-0.05442356
172	0xbce1eadc	-0.02757781
173	0x3d16cce7	0.036816504
174	0x3dcd3b78	0.100211084
175	0xbe09304e	-0.13397333
176	0xbaf0c73e	-0.0018369926
177	0xbe2740b9	-0.16333283
178	0x3d8836de	0.0665109
179	0x3e97cb87	0.29647467
180	0xbd94e981	-0.072711
181	0xbdbbc67b	-0.091687165
182	0xbde50688	-0.11182886
183	0xbaafe138	-0.0013418561
184	0x3e1aecd1	0.15129401
185	0x3e6af54e	0.22945139
186	0x3e1b6b3d	0.15177627
187	0x3d31bba7	0.04339185
188	0x3eaf625c	0.3425473
189	0x3e98adfc	0.2982024
190	0x3d98a3e5	0.074531354
191	0x3de5c8e0	0.112199545
192	0x3e1c63f3	0.15272503
193	0x3de8efc3	0.11373856
194	0xbc4e6461	-0.012597174
195	0x3db99636	0.090618536
196	0x3c9eaa15	0.01936821
197	0xbd95be2d	-0.07311664
198	0xbda9c415	-0.08289353
199	0x3e5a55a7	0.21321736
200	0xbd6ccbd7	-0.057811584
201	0xbdbd467a	-0.09241958
202	0x3d747d96	0.05969008
203	0x3e1ce921	0.15323307
204	0x3b543166	0.0032378077
205	0x3daf6d8d	0.08565817
206	0x3d8b4cbf	0.068017475
207	0xbece5978	-0.40302634
208	0xbeb4bc38	-0.3529985
209	0x3e0ca534	0.13734895
210	0xbede9294	-0.43471205
211	0xbe664fba	-0.22491351
212	0xbe6a62ec	-0.22889298
213	0xbda88cfe	-0.08230017
214	0xbe96b752	-0.29436737
215	0xbdc91a46	-0.098194644
216	0x3e791a32	0.24326399
217	0x3e0cc6d0	0.13747716
218	0x3e7ae0ca	0.24499813
219	0x3e42b7ec	0.19015473
220	0x3e9c46bd	0.3052272
221	0x3ddbd572	0.10734071
222	0x3e5e4411	0.21705653
223	0xbc413932	-0.011793422
224	0x3d8e94d3	0.0696198
225	0xbe180f78	-0.14849651
226	0xbee505a6	-0.44730872
227	0x3e58c5a5	0.21169145
228	0xbeb5aeb9	-0.35484865
229	0xbe8afeee	-0.2714762
230	0xbe4d23a1	-0.20033123
231	0xbe55e731	-0.20888974
232	0xbe63b8e3	-0.22238497
233	0xbde4a3b1	-0.11164034
234	0xbdbce367	-0.09223061
235	0xbd335068	-0.043777853
236	0x3e0ed0c3	0.13946824
237	0x3bf315df	0.0074183787
238	0x3d83e3d7	0.064399414
239	0xbb0fcf61	-0.0021943676
240	0x3e30be98	0.17260206
241	0xbd271670	-0.040792882
242	0x3e10e4e7	0.1414982
243	0x3e2f813b	0.17139141
244	0xbe998785	-0.29986206
245	0x3d912c11	0.07088483
246	0xbd2f5cb5	-0.04281302
247	0x3e2a14a9	0.16609444
248	0x3e2311a7	0.15924703
249	0x3c60f19f	0.013729482
250	0x3d7fcae5	0.062449355
251	0x3becb57f	0.0072237845
252	0x3d0f5f70	0.035003126
253	0x3e454628	0.19265044
254	0x3e37d3ed	0.17951937
255	0x3d90f09a	0.07077141

classify.0.bias f4 [2]
0	0x3da50dbd	0.08059261
1	0xbd555900	-0.05208683

exp_avg f4 [16, 1, 1, 51]
0	0xb7422669	-1.1572244e-05
1	0xb8bf50b1	-9.12262e-05
2	0xb93ab4cf	-0.00017805699
3	0xb985b035	-0.0002549902
4	0xb9a5d6e0	-0.00031631347
5	0xb9c901fc	-0.00038339186
6	0xb9d19ba3	-0.00039979545
7	0xb9c51cf2	-0.00037596334
8	0xb998c376	-0.0002913733
9	0xb96178fe	-0.00021502745
10	0xb90fa24f	-0.00013698007
11	0xb84b5dc4	-4.8486298e-05
12	0x3837e264	4.3841443e-05
13	0x390db9f0	0.00013516075
14	0x3914d9aa	0.00014195466
15	0x38b10cd5	8.442408e-05
16	0x38056849	3.1806794e-05
17	0x3755ace9	1.2736048e-05
18	0x36c742db	5.938445e-06
19	0x372cae99	1.0292651e-05
20	0xb6ca8e43	-6.0366306e-06
21	0xb8b11f9d	-8.445906e-05
22	0xb92cef2d	-0.00016492298
23	0xb94d4760	-0.00019576913
24	0xb94448fb	-0.00018719204
25	0xb92604f2	-0.00015832836
26	0xb92b99c2	-0.0001636511
27	0xb932d5be	-0.00017055028
28	0xb9596685	-0.00020732924
29	0xb97edb19	-0.00024304948
30	0xb99e20d5	-0.0003016057
31	0xb9ba1a19	-0.0003549613
32	0xb9d76e4e	-0.0004109018
33	0xb9dce427	-0.00042131657
34	0xb9d4a649	-0.00040559683
35	0xb9bebca5	-0.00036380175
36	0xb9b10dc4	-0.00033770327
37	0xb9ac059b	-0.00032810573
38	0xb9b2eb07	-0.00034125915
39	0xb9a6329b	-0.0003169969
40	0xb9b646b4	-0.00034766423
41	0xb9d588a5	-0.00040728334
42	0xb9e065a4	-0.00042800338
43	0xb9e060d0	-0.0004279674
44	0xb9de0366	-0.00042345672
45	0xb9c0a271	-0.00036742122
46	0xb9972d77	-0.00028834838
47	0xb9811841	-0.00024622868
48	0xb9180ca1	-0.00014500554
49	0xb8770062	-5.8889746e-05
50	0xb55dc421	-8.261432e-07
51	0xbb033b9b	-0.0020024541
52	0x3ab50567	0.0013810814
53	0x3a304a3f	0.0006724931
54	0x3a80908b	0.0009808702
55	0x3a819b38	0.0009888178
56	0xba0e98b7	-0.00054396264
57	0xba93b744	-0.0011269827
58	0xba868001	-0.0010261537
59	0xbaaf7038	-0.0013384884
60	0xba4a38c2	-0.0007714146
61	0x39af7be4	0.00033470907
62	0x39e41c2f	0.00043508547
63	0xb8d7a01c	-0.000102818216
64	0xba0ab82b	-0.00052917254
65	0xb996ea3f	-0.00028784756
66	0xb9a10dd7	-0.00030718624
67	0xba532329	-0.00080542505
68	0xbad199fd	-0.0015991327
69	0xbae762ec	-0.0017653382
70	0xbab2f204	-0.0013652449
71	0xba781ef6	-0.0009465063
72	0xba386757	-0.0007034442
73	0xba922e57	-0.0011152726
74	0xba6a1aea	-0.0008930402
75	0xb9fa0b7b	-0.0004769227
76	0xbb0bb4f0	-0.0021317564
77	0xbb2baaf4	-0.0026194425
78	0xbacaa1ae	-0.0015459561
79	0xb9b47ab0	-0.00034423685
80	0x37ac6511	2.055106e-05
81	0x3a44e91f	0.00075115444
82	0x3a67ebaf	0.000884707
83	0x3aa1a72e	0.0012333149
84	0x3b05dcc3	0.0020425774
85	0x3b44a045	0.0030002755
86	0x3afca4fb	0.0019275242
87	0x398c773c	0.00026791717
88	0xba8d4eca	-0.0010780927
89	0xbb1eb63a	-0.0024217502
90	0xbb76e385	-0.0037672233
91	0xbba00632	-0.004883551
92	0xbb6df25b	-0.0036307785
93	0xbb3f718b	-0.0029211964
94	0xbb127f0a	-0.0022353553
95	0xbb4ad31a	-0.003094858
96	0xbba73d41	-0.0051037376
97	0xbbd490d0	-0.0064869896
98	0xbbdd3780	-0.006751001
99	0xbbc10258	-0.005890172
100	0xbbc833d8	-0.006109696
101	0xbbd27dc1	-0.0064236824
102	0x39869a02	0.00025673216
103	0x397f2ba4	0.00024334952
104	0x394657e0	0.00018915487
105	0x390136bb	0.00012322787
106	0x386a3040	5.5834884e-05
107	0x3764ca6b	1.3636988e-05
108	0x37bc27bb	2.2429847e-05
109	0x381a50a8	3.6791578e-05
110	0x37dc1e3b	2.624012e-05
111	0xb7519ff7	-1.24946155e-05
112	0xb6dfbb34	-6.667711e-06
113	0x37953404	1.7786406e-05
114	0x371c8980	9.330339e-06
115	0xb7b9411c	-2.2084037e-05
116	0xb86ff9dc	-5.721474e-05
117	0xb902ea46	-0.0001248504
118	0xb9211122	-0.00015360539
119	0xb9136aed	-0.00014058845
120	0xb8d251d9	-0.00010028826
121	0xb89f50cd	-7.596761e-05
122	0xb7f67f17	-2.9384666e-05
123	0xb68a3f7f	-4.1201124e-06
124	0xb811ff50	-3.4808472e-05
125	0xb8cc1111	-9.730657e-05
126	0xb90b2703	-0.00013270606
127	0xb9047aa9	-0.00012634195
128	0xb8f3f484	-0.000116326875
129	0xb8fdba62	-0.000120986966
130	0xb8d90333	-0.00010347962
131	0xb891e0d6	-6.956018e-05
132	0xb86f00a1	-5.6982626e-05
133	0xb81d5b4a	-3.7516736e-05
134	0x3781ab02	1.545763e-05
135	0x3882a864	6.230248e-05
136	0x3884e074	6.336058e-05
137	0x3832f8dc	4.2670275e-05
138	0x3753a307	1.2614538e-05
139	0xb74822cd	-1.1929032e-05
140	0xb83651ff	-4.3468546e-05
141	0xb8391bed	-4.4133445e-05
142	0xb83138da	-4.2253036e-05
143	0xb68a068a	-4.1134817e-06
144	0x38062a2c	3.1987365e-05
145	0x389f5d76	7.599119e-05
146	0x38b703f2	8.726855e-05
147	0x38a7db19	8.003991e-05
148	0x38283efc	4.011298e-05
149	0x381f4d30	3.798044e-05
150	0x3834fa69	4.3148557e-05
151	0x38845ad7	6.311171e-05
152	0x372d3562	1.0324033e-05
153	0xb8be828d	-9.084223e-05
154	0xb7d4e643	-2.5379593e-05
155	0xb8b13c31	-8.451229e-05
156	0xb957ff2e	-0.0002059906
157	0xb996edd0	-0.00028787414
158	0xb99bf71d	-0.00029748018
159	0xb9a39a22	-0.0003120462
160	0xb9aab28f	-0.00032557963
161	0xb9daf1b2	-0.00041760277
162	0xba0ab695	-0.0005291489
163	0xba0bf4c3	-0.00053389015
164	0xb9e9202c	-0.00044465193
165	0xb9d418d0	-0.00040454278
166	0xb9e14f42	-0.00042974396
167	0xb9eb0f4d	-0.00044834093
168	0xb9e0bc03	-0.0004286469
169	0xb9cc0902	-0.00038916623
170	0xb9ac375c	-0.00032847642
171	0xb96472ea	-0.00021786583
172	0xb90c2768	-0.0001336612
173	0xb8e40424	-0.000108726585
174	0xb8a2403c	-7.7367265e-05
175	0xb8b7f628	-8.77197e-05
176	0xb911bb7e	-0.00013898124
177	0xb939e93d	-0.00017729863
178	0xb95506cc	-0.00020315795
179	0xb9787159	-0.00023693348
180	0xb9695368	-0.00022251683
181	0xb9276a22	-0.00015965899
182	0xb844cead	-4.6922523e-05
183	0x38cfdfca	9.912213e-05
184	0x39570a86	0.00020507918
185	0x3971d0ed	0.00023061382
186	0x39616783	0.00021496233
187	0x393ee8f5	0.00018206595
188	0x391bab97	0.00014845874
189	0x38da7e1f	0.00010418542
190	0x3808499f	3.249349e-05
191	0xb7eb504c	-2.8051574e-05
192	0xb82c3e92	-4.106627e-05
193	0xb8b86380	-8.792337e-05
194	0xb9095942	-0.00013098589
195	0xb90c1cd1	-0.00013362175
196	0xb81454f4	-3.536507e-05
197	0x387e3e87	6.0616552e-05
198	0x39194fa0	0.0001462088
199	0x39455e39	0.00018822485
200	0x39468d8d	0.00018935483
201	0x3942ba39	0.00018570655
202	0x3932d4bf	0.00017054657
203	0x38dbc4cb	0.00010479389
204	0x392b1b1b	0.00016317928
205	0x38faa18a	0.00011951018
206	0xb806843f	-3.2071253e-05
207	0xb9471a5c	-0.00018987939
208	0xb8deed73	-0.00010630013
209	0x394bb7e7	0.00019428098
210	0x396b8156	0.00022459528
211	0x368a8d7c	4.1291914e-06
212	0xb9859b00	-0.0002548322
213	0xb9cbbeee	-0.0003886143
214	0xb9a17dc1	-0.00030802007
215	0x38ee0946	0.00011350452
216	0x39be63a5	0.00036313865
217	0x39bf1822	0.0003644834
218	0x398658b6	0.00025624566
219	0x38bffdea	9.154885e-05
220	0xb8093680	-3.2714102e-05
221	0x37acc7b3	2.059699e-05
222	0x36f6a7af	7.3508922e-06
223	0x3888002c	6.4850174e-05
224	0x3987538f	0.00025811463
225	0x39a27b0a	0.0003099072
226	0x39330170	0.00017071306
227	0x3943c78f	0.0001867099
228	0x39252983	0.0001575109
229	0xb6ba29f5	-5.5481164e-06
230	0xb9bc9ac5	-0.00035973467
231	0xba1d16b2	-0.00059924566
232	0xba26b040	-0.0006358661
233	0xba0d16a2	-0.00053820957
234	0xb9c72574	-0.00037984143
235	0xb9e53575	-0.00043718112
236	0xba18efe1	-0.00058340846
237	0xba60e3e3	-0.00085788796
238	0xba511965	-0.00079765014
239	0xba1cc583	-0.0005980359
240	0xba062598	-0.0005117296
241	0xb9b7ee98	-0.00035082246
242	0xb8bf1bd1	-9.112771e-05
243	0x3915a936	0.00014272783
244	0xb63c7abf	-2.808563e-06
245	0xb9288de1	-0.00016074583
246	0xb9bdc665	-0.00036196705
247	0xb9d1f67f	-0.0004004724
248	0xb9eb825a	-0.00044919812
249	0xba09370a	-0.0005234337
250	0xba1c84d6	-0.0005970722
251	0xba246087	-0.0006270487
252	0xb9f5c1ef	-0.00046874533
253	0x38c9c450	9.620993e-05
254	0x3a321812	0.0006793748
255	0xb9820efe	-0.00024806702

exp_avg_sq f4 [16, 1, 1, 51]
0	0x35efc2d6	1.7863592e-06
1	0x35e3ff6f	1.6987159e-06
2	0x35d5a423	1.5917507e-06
3	0x35c44f47	1.4626211e-06
4	0x35b05fa2	1.3140855e-06
5	0x359bf7b6	1.1620493e-06
6	0x3587763a	1.0092692e-06
7	0x356d2469	8.8342364e-07
8	0x354dd09e	7.667203e-07
9	0x352df1a0	6.479913e-07
10	0x350d1890	5.2562336e-07
11	0x34dd1c3a	4.1184995e-07
12	0x34aaccce	3.1813983e-07
13	0x3483a6db	2.4522055e-07
14	0x344de8fd	1.9176873e-07
15	0x34259430	1.5420733e-07
16	0x340f1f63	1.3329331e-07
17	0x33f7a822	1.1532417e-07
18	0x33d4c5c5	9.9079934e-08
19	0x33c4dfed	9.167693e-08
20	0x33cded23	9.589191e-08
21	0x33f9a2e6	1.1624597e-07
22	0x34244e27	1.5302122e-07
23	0x34584914	2.0143153e-07
24	0x3483eea9	2.45743e-07
25	0x349dcca1	2.9392416e-07
26	0x34b95869	3.4523262e-07
27	0x34d319af	3.93205e-07
28	0x34edb937	4.4279452e-07
29	0x350d061d	5.253549e-07
30	0x352cf5b6	6.443255e-07
31	0x354ccddb	7.629548e-07
32	0x3563028c	8.4567796e-07
33	0x3576454f	9.1743e-07
34	0x35844ae6	9.856565e-07
35	0x358f737c	1.0687941e-06
36	0x359ac4f6	1.1531217e-06
37	0x35a56ccc	1.2325122e-06
38	0x35b0bad6	1.3167398e-06
39	0x35bfb49e	1.4283175e-06
40	0x35cf0b9c	1.5426081e-06
41	0x35dab3b2	1.6294564e-06
42	0x35e3d885	1.6975833e-06
43	0x35ee0daf	1.7736364e-06
44	0x35f9d61e	1.8614262e-06
45	0x360579ab	1.9889364e-06
46	0x360eeece	2.1298652e-06
47	0x36152cd6	2.2228828e-06
48	0x36174254	2.2539361e-06
49	0x3618d611	2.2774368e-06
50	0x361b8c7e	2.3178577e-06
51	0x3a4dbba4	0.000784809
52	0x3a50b204	0.00079610967
53	0x3a54fcf4	0.0008124851
54	0x3a58f087	0.00082755875
55	0x3a5dcf7a	0.00084613974
56	0x3a68649b	0.0008865089
57	0x3a752de6	0.00093528477
58	0x3a779264	0.0009444116
59	0x3a7767be	0.0009437761
60	0x3a748d93	0.00093289575
61	0x3a7b3fc9	0.0009584395
62	0x3a7eafe2	0.00097155396
63	0x3a8234a3	0.00099339
64	0x3a8308d2	0.0009997135
65	0x3a831d6f	0.0010003279
66	0x3a8620cc	0.0010233163
67	0x3a8d4be6	0.0010780066
68	0x3a90e278	0.0011053821
69	0x3a901839	0.0010993547
70	0x3a8e1686	0.0010840453
71	0x3a9072da	0.0011020557
72	0x3a954f37	0.0011391406
73	0x3a98de7e	0.0011662988
74	0x3a974f5b	0.0011544036
75	0x3a94967b	0.001133635
76	0x3a96bf23	0.0011501055
77	0x3a9b414f	0.0011845025
78	0x3a9f26af	0.0012142266
79	0x3aa16982	0.0012314769
80	0x3aa1eb9f	0.0012353546
81	0x3aa3026f	0.0012436638
82	0x3aa13c59	0.001230131
83	0x3aa16ac9	0.001231515
84	0x3aa64d55	0.0012687842
85	0x3aa79499	0.0012785374
86	0x3aa6220e	0.0012674944
87	0x3aa51850	0.0012595747
88	0x3aa67c1a	0.001270178
89	0x3aa8d9db	0.0012882309
90	0x3aaa1f89	0.0012979369
91	0x3aac4d39	0.0013145573
92	0x3aa776b5	0.0012776466
93	0x3aa57597	0.0012623545
94	0x3aa66846	0.0012695871
95	0x3aa6eef2	0.0012736006
96	0x3aa607a3	0.0012667071
97	0x3aa168ee	0.0012314597
98	0x3a9d6922	0.0012009481
99	0x3a9eb99b	0.0012109758
100	0x3a9ca4e9	0.0011951003
101	0x3a9c4f2a	0.0011925448
102	0x365abcc7	3.2594414e-06
103	0x365da102	3.3025285e-06
104	0x365d2e29	3.2958435e-06
105	0x365bb4a9	3.27387e-06
106	0x36593e72	3.2371868e-06
107	0x3655edcb	3.1877887e-06
108	0x36517535	3.121165e-06
109	0x364d25f9	3.0569483e-06
110	0x36485158	2.984967e-06
111	0x36424ad9	2.895182e-06
112	0x363a9c8c	2.7807282e-06
113	0x36345fd9	2.687788e-06
114	0x362d945b	2.5865363e-06
115	0x3626196b	2.4750723e-06
116	0x361e4bec	2.3588027e-06
117	0x36170ebc	2.250933e-06
118	0x361026d0	2.1480264e-06
119	0x3607af08	2.021845e-06
120	0x35fb77c9	1.8735819e-06
121	0x35eb2683	1.7520073e-06
122	0x35dcbfa2	1.644705e-06
123	0x35cdd130	1.5334572e-06
124	0x35c00f3e	1.4309551e-06
125	0x35b44f7f	1.3434181e-06
126	0x35a5b5d2	1.2346375e-06
127	0x35949759	1.1070907e-06
128	0x35840742	9.836879e-07
129	0x356acd56	8.7470596e-07
130	0x3551423d	7.7954957e-07
131	0x353ce270	7.036497e-07
132	0x352af476	6.368567e-07
133	0x3516797f	5.6056155e-07
134	0x350068d0	4.783624e-07
135	0x34d67f84	3.9953386e-07
136	0x34b43fc9	3.3574022e-07
137	0x349a0823	2.8690656e-07
138	0x34850247	2.4774837e-07
139	0x346d695c	2.2110675e-07
140	0x3462ac0b	2.1110479e-07
141	0x34638765	2.1190279e-07
142	0x3461f751	2.1044731e-07
143	0x34532786	1.9665285e-07
144	0x34477c09	1.8578443e-07
145	0x34463595	1.845968e-07
146	0x3455ed1d	1.9923432e-07
147	0x3467d51d	2.1591082e-07
148	0x3483e947	2.4570383e-07
149	0x3497fb0a	2.8308597e-07
150	0x34b3096e	3.334821e-07
151	0x34d0941a	3.8850777e-07
152	0x34f54a10	4.5688694e-07
153	0x3610e21b	2.1589283e-06
154	0x360d392f	2.1043923e-06
155	0x36047cd9	1.9742204e-06
156	0x36010203	1.922367e-06
157	0x36010901	1.922774e-06
158	0x35fb3cdb	1.8718669e-06
159	0x35eec2d0	1.778908e-06
160	0x35e4efa8	1.7057073e-06
161	0x35e11505	1.6769924e-06
162	0x35e1a184	1.6810814e-06
163	0x35df67be	1.6644988e-06
164	0x35da7520	1.6276354e-06
165	0x35d66e4d	1.5976344e-06
166	0x35d66b3a	1.597545e-06
167	0x35d76a28	1.6049644e-06
168	0x35d7b5cd	1.6071659e-06
169	0x35d8b146	1.6144847e-06
170	0x35d595a1	1.5913284e-06
171	0x35ca98df	1.5094664e-06
172	0x35ba4931	1.3879381e-06
173	0x35a87df9	1.2553638e-06
174	0x359ada3d	1.153741e-06
175	0x35925d4b	1.0905e-06
176	0x35912115	1.081297e-06
177	0x359615c6	1.1182208e-06
178	0x3599bc29	1.145415e-06
179	0x3592009e	1.0878027e-06
180	0x35839382	9.803191e-07
181	0x3575c311	9.155347e-07
182	0x357588e5	9.146882e-07
183	0x3575d6f2	9.15824e-07
184	0x356fe44e	8.9366665e-07
185	0x3571ef3c	9.012763e-07
186	0x357bd007	9.3807506e-07
187	0x3585703d	9.941938e-07
188	0x358977a9	1.0242121e-06
189	0x3585dbec	9.973278e-07
190	0x357eb618	9.4887355e-07
191	0x357c06e0	9.388732e-07
192	0x35803ca4	9.554392e-07
193	0x3582df85	9.750808e-07
194	0x35870c5a	1.0061879e-06
195	0x358af7ec	1.0353956e-06
196	0x358fab35	1.0704158e-06
197	0x35959b35	1.1146536e-06
198	0x359d338f	1.1712417e-06
199	0x35a4beee	1.227452e-06
200	0x35a79ae3	1.2487548e-06
201	0x35a785d8	1.2481423e-06
202	0x35a93dfb	1.260952e-06
203	0x35acaac6	1.28647e-06
204	0x38082614	3.246039e-05
205	0x3810149f	3.435148e-05
206	0x37d2b9aa	2.5120407e-05
207	0x3766b572	1.3751314e-05
208	0x3726b002	9.935351e-06
209	0x376e6957	1.4210432e-05
210	0x37b3a0bc	2.141331e-05
211	0x37d0ed40	2.490601e-05
212	0x37abb971	2.0471141e-05
213	0x3743a20a	1.1660633e-05
214	0x36e457c4	6.8051468e-06
215	0x3723b842	9.758458e-06
216	0x37886ae9	1.6262247e-05
217	0x37ace641	2.0611218e-05
218	0x37a837da	2.0053169e-05
219	0x37799f61	1.4878665e-05
220	0x37251375	9.839297e-06
221	0x372a9460	1.0167336e-05
222	0x3776e0c4	1.4715075e-05
223	0x379f71f0	1.9007333e-05
224	0x37a21709	1.9322631e-05
225	0x378822b7	1.6228629e-05
226	0x373e347d	1.1337103e-05
227	0x36f78eaf	7.377784e-06
228	0x36e1131b	6.7077467e-06
229	0x37203a8c	9.550375e-06
230	0x3747a7d7	1.1900403e-05
231	0x3743d9cc	1.16736155e-05
232	0x37347648	1.0756376e-05
233	0x372c5a31	1.0272998e-05
234	0x371bca88	9.285875e-06
235	0x373f8705	1.1415924e-05
236	0x3798dc55	1.8222412e-05
237	0x37be6a07	2.2699138e-05
238	0x37b7e005	2.1919617e-05
239	0x3791f8b4	1.7401158e-05
240	0x3743eec8	1.1678501e-05
241	0x3704d9b7	7.918504e-06
242	0x371d5554	9.377796e-06
243	0x377d7915	1.5108167e-05
244	0x37a8ce0f	2.0123114e-05
245	0x379cd633	1.8696393e-05
246	0x375fadaa	1.333227e-05
247	0x37279758	9.989213e-06
248	0x376ef703	1.4243417e-05
249	0x37dad817	2.608825e-05
250	0x38249691	3.9240873e-05
251	0x3834c47e	4.3098342e-05
252	0x38080109	3.242589e-05
253	0x378c66c5	1.6737156e-05
254	0x372c5d3f	1.0273709e-05
255	0x394db8b0	0.00019619125

exp_avg f4 [16]
0	0x35fc07fa	1.8777785e-06
1	0xb58171bd	-9.644351e-07
2	0xbbc5454a	-0.006020223
3	0x373e0c7e	1.1327791e-05
4	0x36b9db57	5.538964e-06
5	0xb6455c92	-2.940917e-06
6	0x3678ad30	3.7055688e-06
7	0x34fdeade	4.729581e-07
8	0xb92dc44e	-0.00016571695
9	0x3893bf08	7.0450886e-05
10	0x3a658515	0.00087554875
11	0xb5ad03e0	-1.2890632e-06
12	0x36df65c3	6.6577645e-06
13	0x3502ff3c	4.880019e-07
14	0x365d4c41	3.2975952e-06
15	0x39058931	0.00012734976

exp_avg_sq f4 [16]
0	0x310f35b1	2.0839759e-09
1	0x2dbf88ff	2.1775024e-11
2	0x3a2f8808	0.00066959905
3	0x31213c4f	2.3462865e-09
4	0x3523d109	6.102642e-07
5	0x2fd08bf3	3.793442e-10
6	0x2fb039d6	3.2055308e-10
7	0x2db61aa4	2.0702835e-11
8	0x369a760e	4.603301e-06
9	0x34676d44	2.1553302e-07
10	0x3a39c95f	0.00070871966
11	0x2f3fa236	1.7428978e-10
12	0x3114e755	2.1668332e-09
13	0x31c3ba90	5.6964566e-09
14	0x3229b905	9.879163e-09
15	0x342f37f0	1.6318495e-07

exp_avg f4 [16]
0	0xb016f68d	-5.492005e-10
1	0x308d2edc	1.0272418e-09
2	0xafa3a025	-2.9763317e-10
3	0x3109413e	1.997321e-09
4	0x2fc93983	3.6602552e-10
5	0xb1004632	-1.8666353e-09
6	0xb05b65e6	-7.981654e-10
7	0xb0b459f2	-1.3122288e-09
8	0xb0977fd8	-1.1023031e-09
9	0x309a5011	1.1227731e-09
10	0xb1d838db	-6.292891e-09
11	0xaf1a8a56	-1.4055365e-10
12	0xaef47951	-1.11173855e-10
13	0xb100affa	-1.8726483e-09
14	0xb12658cf	-2.4206661e-09
15	0xb17eac90	-3.7059955e-09

exp_avg_sq f4 [16]
0	0x23e822c9	2.5168222e-17
1	0x23b01aac	1.9093254e-17
2	0x25a92a17	2.9345348e-16
3	0x23a687c8	1.8055262e-17
4	0x2541e999	1.6819228e-16
5	0x23982ae5	1.649804e-17
6	0x2384f385	1.4414603e-17
7	0x23787030	1.34678636e-17
8	0x24b9d4ee	8.059168e-17
9	0x24acfdc4	7.5023005e-17
10	0x26bd6522	1.3141922e-15
11	0x23a78a27	1.8164686e-17
12	0x22c77b9d	5.406994e-18
13	0x2453967e	4.5880804e-17
14	0x2515753e	1.2963413e-16
15	0x2480cf91	5.586278e-17

exp_avg f4 [32, 1, 2, 1]
0	0x3990de2c	0.0002763135
1	0x3b497050	0.003073711
2	0xb9aa7c58	-0.0003251757
3	0xbb1f6f44	-0.0024327794
4	0xbaaf11eb	-0.001335678
5	0xbbb1f592	-0.0054308856
6	0x3b9629c6	0.0045826165
7	0xb9fea769	-0.00048571386
8	0xbab1b602	-0.0013558271
9	0xbb47452b	-0.0030406218
10	0xb8fe6b2c	-0.00012131626
11	0x3bc0ccf3	0.005883807
12	0xbace4a17	-0.0015738633
13	0xb946f83c	-0.00018975226
14	0xbb361a86	-0.0027786805
15	0xba430c1e	-0.0007440465
16	0xbb05edc3	-0.0020435906
17	0xbba40ac4	-0.005006166
18	0x3b1ce8c2	0.0023942445
19	0x3bbdbf8e	0.0057906574
20	0x3a126879	0.00055850256
21	0x3b7a4e60	0.0038193688
22	0xbbe93472	-0.0071168477
23	0xbb472ca8	-0.0030391607
24	0x3b39863b	0.0028308767
25	0xbab6ea8e	-0.0013955401
26	0xba8a4c09	-0.0010551225
27	0xbb43d8e6	-0.002988392
28	0x3aa3dafa	0.0012501173
29	0x3922014a	0.00015450004
30	0xba842843	-0.00100828
31	0xb9461aa8	-0.00018892682
32	0x3a615f2f	0.00085972523
33	0x38ff7b90	0.00012182363
34	0x3c45d470	0.012074575
35	0x3c81f0eb	0.015861949
36	0xb95d4176	-0.00021100588
37	0x390e2b5f	0.00013558332
38	0x3b69a001	0.0035648348
39	0x3b736391	0.0037138204
40	0xbb4648fb	-0.0030255902
41	0xbb9bdcc0	-0.00475654
42	0xb914eeab	-0.0001420329
43	0x3946df45	0.00018965926
44	0x3b2d015f	0.0026398522
45	0x3a751cbf	0.0009350292
46	0x3ad05db4	0.0015897066
47	0x3a41d075	0.0007393428
48	0x39d455ca	0.0004049971
49	0x39a004a1	0.00030521027
50	0xbc1d18bc	-0.009588417
51	0xbbf6156c	-0.007509878
52	0xba9df500	-0.0012051165
53	0xb9313632	-0.00016900225
54	0xbb4e77a3	-0.0031504415
55	0xbb11b6d5	-0.002223422
56	0xba3cbd8c	-0.00071998755
57	0xb8abf69a	-8.1998485e-05
58	0x3a530bd5	0.00080507743
59	0x39d3b016	0.0004037625
60	0xbb7249eb	-0.0036970328
61	0xbb21bc7e	-0.0024679
62	0xbb3ced71	-0.002882805
63	0xbb5eaac3	-0.0033976294

exp_avg_sq f4 [32, 1, 2, 1]
0	0x3604871f	1.9748184e-06
1	0x3946caba	0.00018958273
2	0x354f40ce	7.720781e-07
3	0x39214aff	0.00015382095
4	0x383e1ec8	4.5328197e-05
5	0x3a58e7fe	0.00082743156
6	0x39321d85	0.000169864
7	0x361a9905	2.3036857e-06
8	0x39bb2bb8	0.00035699992
9	0x3a696381	0.0008903072
10	0x3b99814c	0.004684603
11	0x3b388f06	0.002816142
12	0x39a8c6d8	0.00032191607
13	0x36dbd28f	6.551221e-06
14	0x39b585e5	0.0003462277
15	0x37829798	1.5567799e-05
16	0x38253ec2	3.9397513e-05
17	0x396ed199	0.0002277553
18	0x38a0e41f	7.6718854e-05
19	0x3a034b09	0.00050084345
20	0x371de5af	9.411407e-06
21	0x3987c89e	0.00025898678
22	0x3b019b5b	0.0019776437
23	0x399a79c0	0.0002946388
24	0x38ee8bfc	0.000113747985
25	0x379edb7a	1.893727e-05
26	0x39597156	0.00020736954
27	0x3aa52476	0.0012599367
28	0x3915fd29	0.00014304057
29	0x35f895bc	1.8521018e-06
30	0x398890c4	0.000260478
31	0x370414c6	7.87265e-06
32	0x3788e929	1.6321037e-05
33	0x347c7f00	2.3515531e-07
34	0x3bd449ca	0.006478523
35	0x3c00bd6a	0.00785766
36	0x381cc89a	3.7380123e-05
37	0x3705c82c	7.974024e-06
38	0x3a1dd1b2	0.0006020322
39	0x3a2f05c2	0.0006676578
40	0x396807b4	0.00022128114
41	0x39d16db4	0.00039945322
42	0x39876901	0.0002582744
43	0x3b6d123a	0.0036174194
44	0x3a3a69c9	0.00071111
45	0x38a757f2	7.9795616e-05
46	0x3a23272b	0.0006223793
47	0x39089bec	0.00013028056
48	0x3a8333f4	0.001000999
49	0x399d24c1	0.00029972757
50	0x3b189df2	0.0023287502
51	0x3a8b370e	0.0010621266
52	0x3865f334	5.4824355e-05
53	0x3545a1ab	7.3623477e-07
54	0x3944e456	0.00018777078
55	0x38b72e9c	8.734802e-05
56	0x3930e6ca	0.00016870644
57	0x369bf1f9	4.6475293e-06
58	0x3a4630a6	0.000756035
59	0x389044fa	6.879303e-05
60	0x3a17ffdf	0.00057983206
61	0x396db595	0.00022669726
62	0x39140a2a	0.00014118166
63	0x394ff055	0.00019830589
